…
('Training sample wt_DR_nominal: ', 6676, '\n', '                tt_nominal:   ', 606145)
('                 wt syst', 1, ':   ', 6555)
('              total nominal:   ', 612821)
('Test sample wt_DR_nominal: ', 4451, '\n', '           tt_nominal:    ', 404097)
('            wt syst', 1, ':    ', 4370)
('         total nominal:    ', 408548)
<class 'sklearn.preprocessing.data.StandardScaler'>
results/bak-modelexp/train_events.pkl
_________________________________________________________________
Layer (type)                 Output Shape              Param #   
=================================================================
Net_input (InputLayer)       (None, 14)                0         
_________________________________________________________________
Net_layer1 (Dense)           (None, 512)               7680      
_________________________________________________________________
Net_layer_0 (Dense)          (None, 512)               262656    
_________________________________________________________________
Net_layer_1 (Dense)          (None, 512)               262656    
_________________________________________________________________
Net_layer_2 (Dense)          (None, 512)               262656    
_________________________________________________________________
Net_layer_3 (Dense)          (None, 512)               262656    
_________________________________________________________________
Net_layer_4 (Dense)          (None, 512)               262656    
_________________________________________________________________
Net_output (Dense)           (None, 1)                 513       
=================================================================
Total params: 1,321,473
Trainable params: 1,321,473
Non-trainable params: 0
_________________________________________________________________
Epoch 1/1

  1024/619376 [..............................] - ETA: 2:42 - loss: 0.0013
  2048/619376 [..............................] - ETA: 2:17 - loss: 0.0014
  3072/619376 [..............................] - ETA: 2:09 - loss: 0.0013
…
